…
        "optimizer = torch.optim.SGD(model.parameters(), lr=0.01)\n",
        "criterion = nn.CrossEntropyLoss()\n",
        "#scheduler = torch.optim.lr_scheduler.ExponentialLR(optimizer, gamma=0.9)\n",
        "scheduler = ReduceLROnPlateau(optimizer, 'min')\n",
        "n_epochs = 35\n",
        "device = torch.device(\"cuda:0\") if torch.cuda.is_available() else torch.device(\"cpu\")\n",
        "model.to(device)"
      ],
      "execution_count": null,
      "outputs": [
        {
          "output_type": "execute_result",
          "data": {
            "text/plain": [
              "Sequential(\n",
              "  (0): Conv2d(3, 16, kernel_size=(3, 3), stride=(1, 1), padding=(1, 1))\n",
              "  (1): BatchNorm2d(16, eps=1e-05, momentum=0.1, affine=True, track_running_stats=True)\n",
              "  (2): ReLU()\n",
              "  (3): Conv2d(16, 32, kernel_size=(3, 3), stride=(1, 1), padding=(1, 1))\n",
              "  (4): BatchNorm2d(32, eps=1e-05, momentum=0.1, affine=True, track_running_stats=True)\n",
              "  (5): ReLU()\n",
              "  (6): MaxPool2d(kernel_size=2, stride=2, padding=0, dilation=1, ceil_mode=False)\n",
              "  (7): Dropout(p=0.2, inplace=False)\n",
              "  (8): Conv2d(32, 64, kernel_size=(3, 3), stride=(1, 1), padding=(1, 1))\n",
              "  (9): BatchNorm2d(64, eps=1e-05, momentum=0.1, affine=True, track_running_stats=True)\n",
              "  (10): ReLU()\n",
              "  (11): Conv2d(64, 128, kernel_size=(3, 3), stride=(1, 1), padding=(1, 1))\n",
              "  (12): BatchNorm2d(128, eps=1e-05, momentum=0.1, affine=True, track_running_stats=True)\n",
              "  (13): ReLU()\n",
              "  (14): MaxPool2d(kernel_size=2, stride=2, padding=0, dilation=1, ceil_mode=False)\n",
              "  (15): Dropout(p=0.2, inplace=False)\n",
              "  (16): Conv2d(128, 64, kernel_size=(3, 3), stride=(1, 1), padding=(1, 1))\n",
              "  (17): BatchNorm2d(64, eps=1e-05, momentum=0.1, affine=True, track_running_stats=True)\n",
              "  (18): ReLU()\n",
              "  (19): Conv2d(64, 128, kernel_size=(3, 3), stride=(1, 1), padding=(1, 1))\n",
              "  (20): BatchNorm2d(128, eps=1e-05, momentum=0.1, affine=True, track_running_stats=True)\n",
              "  (21): ReLU()\n",
              "  (22): MaxPool2d(kernel_size=2, stride=2, padding=0, dilation=1, ceil_mode=False)\n",
              "  (23): Dropout(p=0.2, inplace=False)\n",
              "  (24): Flatten(start_dim=1, end_dim=-1)\n",
              "  (25): Linear(in_features=8192, out_features=4096, bias=True)\n",
              "  (26): BatchNorm1d(4096, eps=1e-05, momentum=0.1, affine=True, track_running_stats=True)\n",
              "  (27): ReLU()\n",
              "  (28): Dropout(p=0.4, inplace=False)\n",
              "  (29): Linear(in_features=4096, out_features=2048, bias=True)\n",
              "  (30): BatchNorm1d(2048, eps=1e-05, momentum=0.1, affine=True, track_running_stats=True)\n",
              "  (31): ReLU()\n",
              "  (32): Dropout(p=0.4, inplace=False)\n",
              "  (33): Linear(in_features=2048, out_features=1024, bias=True)\n",
              "  (34): BatchNorm1d(1024, eps=1e-05, momentum=0.1, affine=True, track_running_stats=True)\n",
              "  (35): ReLU()\n",
              "  (36): Dropout(p=0.4, inplace=False)\n",
              "  (37): Linear(in_features=1024, out_features=200, bias=True)\n",
              ")"
            ]
          },
          "metadata": {},
          "execution_count": 22
        }
      ]
    },
    {
      "cell_type": "code",
      "metadata": {
        "id": "EdfLlmx6CvpW",
        "colab": {
          "base_uri": "https://localhost:8080/"
        },
        "outputId": "e619d1b0-fef0-48cc-da40-5a4e19f17a25"
      },
…
